src/examples/D/stats.safetensors (safetensors, 295320 bytes, 4 tensors)

cov_lf_components f4 [4, 4]
0	0x44919c6f	1164.8885
1	0x44623a0b	904.9069
2	0xc36c26b9	-236.15126
3	0xc3b5d72b	-363.681
4	0x44623a0b	904.9069
5	0x44eeda9b	1910.8314
6	0xc3b70132	-366.00934
7	0xc415b587	-598.83636
8	0xc36c26b9	-236.15126
9	0xc3b70132	-366.00934
10	0x443c02a0	752.041
11	0x42c1c6db	96.88839
12	0xc3b5d72b	-363.681
13	0xc415b587	-598.83636
14	0x42c1c6db	96.88839
15	0x44a5c152	1326.0413

mean_hf_remainder f4 [4, 96, 96]
0	0x3e34305d	0.17596574
1	0x3dbe6222	0.09296061
2	0x3e0eecf0	0.13957572
3	0x3e214a0e	0.15750906
4	0x3e319e6a	0.17345586
5	0x3c861213	0.01636604
6	0x3e3759e2	0.17905381
7	0x3e1d2074	0.15344411
8	0x3e0da46e	0.13832256
9	0x3e117fdf	0.14208935
10	0x3e0d5cf6	0.13804993
11	0x3e05e056	0.13073859
12	0x3e2ad52c	0.16682881
13	0x3e5f8526	0.21828136
14	0x3e7fad98	0.24968565
15	0x3e834107	0.2563555
16	0x3e4dccf0	0.20097709
17	0x3e1057f8	0.14096057
18	0x3e8fb74f	0.2806954
19	0x3e7a6ec2	0.24456313
20	0x3e3f59a2	0.18686536
21	0x3e7928c8	0.24331963
22	0x3e4dc3fe	0.20094296
23	0x3e672244	0.22571665
24	0x3e641882	0.22274974
25	0x3e0d7922	0.1381574
26	0x3e34847c	0.17628664
27	0x3e1c33eb	0.1525418
28	0x3e38c822	0.18045095
29	0x3e66ec26	0.22551021
30	0x3e5aed22	0.21379521
31	0x3e3d4395	0.18482812
32	0x3e2476d2	0.16060951
33	0x3e3c2616	0.18373904
34	0x3e5fb550	0.21846509
35	0x3e6ab67f	0.22921179
36	0x3e74c5aa	0.23903528
37	0x3e5a560d	0.21321888
38	0x3eac3ff0	0.3364253
39	0x3e767087	0.24066363
40	0x3e83a6a1	0.25713065
41	0x3e6ed174	0.23322088
42	0x3e4c1c85	0.19932754
43	0x3eb537b5	0.35394064
44	0x3e18220f	0.14856742
45	0x3e130fc6	0.14361486
46	0x3e2e9b15	0.17051347
47	0x3e674799	0.22585906
48	0x3e23e58e	0.16005537
49	0x3e4e17fa	0.20126334
50	0x3e93e632	0.28886563
51	0x3e352e10	0.17693353
52	0x3e2e1707	0.17000972
53	0x3e2309ea	0.1592175
54	0x3e83d52b	0.25748572
55	0x3e347b19	0.17625083
56	0x3e40cae5	0.18827398
57	0x3da1bc64	0.07897261
58	0x3e2a07db	0.16604559
59	0x3dd1ae39	0.102383085
60	0x3e5f391a	0.21799126
61	0x3e049a03	0.12949376
62	0x3dc1ae84	0.09457114
63	0x3e0874a3	0.13325743
64	0x3d923e00	0.07140732
65	0x3e26074f	0.16213726
66	0x3d806fd2	0.06271328
67	0x3dc6dff8	0.097106874
68	0x3dbf9aeb	0.0935572
69	0x3e276e34	0.16350633
70	0x3d9d8fba	0.07693429
71	0x3d5cdd7f	0.053922173
72	0x3e087a10	0.13327813
73	0x3e3df208	0.18549359
74	0x3d7d7ee4	0.06188859
75	0x3e15d599	0.14632262
76	0x3e3b1b34	0.18272096
77	0x3e57e4f8	0.21083438
78	0x3e1e684c	0.15469474
79	0x3e04a993	0.12955312
80	0x3e0d4f26	0.13799724
81	0x3e4fe730	0.20303035
82	0x3d5a3842	0.053276308
83	0x3d1dd429	0.03853241
84	0x3d853d52	0.065058365
85	0x3e256e8b	0.1615545
86	0x3c1828cc	0.0092870705
87	0x3dd99de1	0.10625816
88	0x3e04612e	0.12927696
89	0x3e21f8f9	0.15817632
90	0xbd9fe60f	-0.07807552
91	0xbc8e1066	-0.017341804
92	0x3e0f0cce	0.13969728
93	0x3dbd02b7	0.092290334
94	0x3c0d9fc4	0.008644048
95	0xbd6bd8e2	-0.057579882
96	0x3db4a9b6	0.08821432
97	0xbc35e9d1	-0.011103109
98	0x3db7d1ea	0.08975585
99	0x3c8833a2	0.016626183
100	0x3df9e266	0.12201385
101	0x3d806e22	0.06271006
102	0x3e1d605c	0.1536879
103	0x3e488090	0.19580293
104	0x3e1798d1	0.14804389
105	0x3e4c438e	0.19947645
106	0x3dfc1f7e	0.12310694
107	0x3e932114	0.28736174
108	0x3e1c5209	0.15265669
109	0x3e2ce85f	0.16885518
110	0x3e749f71	0.23888947
111	0x3e6273de	0.22114512
112	0x3e680df3	0.22661571
113	0x3dfaefdd	0.122527815
114	0x3e0087e0	0.12551832
115	0x3ea00acb	0.31258234
116	0x3e3bff19	0.18359031
117	0x3e556955	0.20840962
118	0x3e893b5d	0.26803103
119	0x3e4503f7	0.19239794
120	0x3e6b9f46	0.23009977
121	0x3e1ad3cf	0.15119861
122	0x3e4e5cb6	0.20152554
123	0x3e9ac752	0.30230194
124	0x3e328ff4	0.17437726
125	0x3e6e6d96	0.23283991
126	0x3e0cf340	0.13764668
127	0x3e41055b	0.18849699
128	0x3e3086ec	0.17238969
129	0x3e24a6c0	0.16079235
130	0x3e865072	0.2623325
131	0x3e7c3fea	0.24633756
132	0x3e8dfe25	0.2773296
133	0x3e453b40	0.19260883
134	0x3e5f2dee	0.21794865
135	0x3e27e842	0.16397193
136	0x3e8d14fe	0.27555078
137	0x3e91ce78	0.28477836
138	0x3e3c1bcf	0.18369983
139	0x3e13bf81	0.14428522
140	0x3e07333d	0.1320314
141	0x3df75f2f	0.12078702
142	0x3e2d4fe1	0.16925003
143	0x3e7959f0	0.24350715
144	0x3e58419d	0.2111878
145	0x3e80fd96	0.2519347
146	0x3e4f113e	0.20221421
147	0x3e77916d	0.2417657
148	0x3e294bd4	0.16532832
149	0x3e2e9219	0.1704792
150	0x3dffba0f	0.1248666
151	0x3dc94dfa	0.09829326
152	0x3d977548	0.073954165
153	0x3d7a879c	0.061164483
154	0x3d9a1dbd	0.075252034
155	0x3db5181c	0.08842489
156	0x3e2070b2	0.1566799
157	0x3dd65f6a	0.104674175
158	0x3e294d64	0.16533428
159	0x3e0d0a5e	0.13773486
160	0x3e001860	0.12509298
161	0x3dd1f469	0.10251696
162	0x3e0acb93	0.1355422
163	0x3ddd9672	0.10819711
164	0x3e15faaa	0.14646402
165	0x3e54eb96	0.20792994
166	0x3e471bc0	0.1944418
167	0x3e69cefe	0.22832868
168	0x3d9677be	0.07347058
169	0x3e052436	0.13002095
170	0x3e173173	0.14764957
171	0x3d46ddb0	0.04855126
172	0x3e1cfba6	0.15330371
173	0x3da4e5fd	0.08051679
174	0x3e24b9b4	0.16086465
175	0x3d2c168d	0.042013694
176	0x3d33a27c	0.04385613
177	0x3e0d63fb	0.13807671
178	0x3ca4f0ad	0.020134294
179	0x3e34632c	0.17615956
180	0x3e23f601	0.16011812
181	0x3dcd21aa	0.100161865
182	0x3da95340	0.08267832
183	0x3db4b669	0.088238545
184	0xbbea1090	-0.0071430877
185	0x3d8a0bdd	0.06740544
186	0x3bf63798	0.0075139515
187	0x3dd8b1a6	0.10580759
188	0x3de21554	0.11039224
189	0x3d394391	0.045230452
190	0xbd6a825e	-0.057253234
191	0xbe1add8e	-0.15123579
192	0x3dc35f72	0.09539689
193	0x3d850f00	0.06497002
194	0x3e3b7ca8	0.18309271
195	0x3e054596	0.13014826
196	0x3e206456	0.15663275
197	0x3e138420	0.1440587
198	0x3e2f8af2	0.17142847
199	0x3deece08	0.11660391
200	0x3e21f1cb	0.15814893
201	0x3e5f8e27	0.2183157
202	0x3dfb0908	0.12257582
203	0x3e8d7968	0.27631688
204	0x3e7e9216	0.24860415
205	0x3e32a7ac	0.17446774
206	0x3e88738c	0.26650655
207	0x3e2c3b0e	0.16819403
208	0x3e6450d2	0.22296456
209	0x3e727a8b	0.23679559
210	0x3e426930	0.18985438
211	0x3e881768	0.26580358
212	0x3e30c2f7	0.17261873
213	0x3e69c309	0.22828306
214	0x3e8e9d29	0.2785428
215	0x3e295eeb	0.16540115
216	0x3e628774	0.22121984
217	0x3e373522	0.17891362
218	0x3e524aec	0.20536393
219	0x3e8783c3	0.26467714
220	0x3ea6936a	0.32534343
221	0x3e4a3f3c	0.19750684
222	0x3e3f4de1	0.18682052
223	0x3e3671dc	0.17816871
224	0x3e296742	0.16543296
225	0x3e79e66c	0.24404305
226	0x3e64b0f8	0.22333133
227	0x3e83fa41	0.25776866
228	0x3e773588	0.24141514
229	0x3e6f8608	0.23390973
230	0x3e6fb3b2	0.23408392
231	0x3e82a6f0	0.25517988
232	0x3e982fa0	0.29723835
233	0x3e99e02c	0.30053842
234	0x3e7ad0b8	0.24493682
235	0x3e0c9783	0.13729672
236	0x3e81a056	0.2531764
237	0x3e287636	0.16451344
238	0x3e615abe	0.22007272
239	0x3d70eace	0.058817677
240	0x3e741a7a	0.23838225
241	0x3e54c4d4	0.20778209
242	0x3e8eb288	0.27870584
243	0x3e8ce220	0.2751627
244	0x3e535692	0.20638493
245	0x3e242f0d	0.16033573
246	0x3e57c2b6	0.2107037
247	0x3e06e639	0.1317376
248	0x3d861672	0.0654725
249	0x3e453d48	0.19261658
250	0x3df9837e	0.12183283
251	0x3dd0efce	0.10201989
252	0x3de82453	0.11335053
253	0x3dae851c	0.08521482
254	0x3de98bf6	0.114036486
255	0x3dce5f88	0.10076815

mean_lf_components f4 [4]
0	0x42226428	40.59781
1	0xc1d60b45	-26.755503
2	0x418b549d	17.416315
3	0x41bb82e4	23.438911

var_hf_remainder f4 [4, 96, 96]
0	0x3f8d72a9	1.1050617
1	0x3f4d7461	0.80255705
2	0x3f2a3227	0.66482776
3	0x3f38e5fe	0.7222594
4	0x3f5ba46c	0.8579776
5	0x3f25b41f	0.6472797
6	0x3f4a29e0	0.78970146
7	0x3f9ec0ae	1.2402551
8	0x3f88dcbc	1.0692363
9	0x3f3ee201	0.74563605
10	0x3f4189fd	0.7560118
11	0x3f556a26	0.83365095
12	0x3f63f645	0.8904765
13	0x3f64e358	0.894094
14	0x3f4dccd2	0.80390656
15	0x3f5d4b99	0.8644348
16	0x3f602e33	0.87570494
17	0x3f7e3d99	0.9931274
18	0x3f75cc97	0.96015304
19	0x3f53347c	0.8250196
20	0x3f81f59c	1.0153079
21	0x3f7ec432	0.9951812
22	0x3f66952d	0.90071374
23	0x3f77e909	0.9683996
24	0x3f453a8d	0.77042466
25	0x3f51f6ea	0.82017386
26	0x3f3c8c83	0.73651904
27	0x3f603059	0.8757377
28	0x3f3b71e2	0.73220646
29	0x3f415a4b	0.755284
30	0x3f2a3786	0.6649097
31	0x3f5fb97b	0.87392396
32	0x3f46e2fb	0.77690095
33	0x3f48657d	0.7827986
34	0x3f4315bb	0.76205033
35	0x3f53047b	0.8242871
36	0x3f4bc28b	0.79593724
37	0x3f3b82d6	0.73246515
38	0x3f505614	0.81381345
39	0x3f59a782	0.8502122
40	0x3f76614e	0.96242225
41	0x3f5c260d	0.8599556
42	0x3f64c0bd	0.89356595
43	0x3f4f3c6c	0.8095157
44	0x3f5f92f0	0.87333584
45	0x3f96b5fb	1.1774286
46	0x3f7a8d4f	0.9787187
47	0x3f6edf14	0.9330914
48	0x3f4e2bf6	0.8053583
49	0x3f747287	0.95487255
50	0x3f37e1cb	0.7182891
51	0x3f6e7083	0.9314043
52	0x3f59ec69	0.8512636
53	0x3f5ac7c7	0.85461086
54	0x3f507cd3	0.81440467
55	0x3f527eb1	0.82224566
56	0x3f57ef83	0.8434984
57	0x3f703957	0.93837494
58	0x3f67f1ab	0.9060313
59	0x3f42e0a0	0.76124
60	0x3f53d0dc	0.8274057
61	0x3f56d3a9	0.8391672
62	0x3f775786	0.96617925
63	0x3f670733	0.9024536
64	0x3f593ee4	0.8486159
65	0x3f66bf39	0.9013553
66	0x3f69d9d7	0.9134802
67	0x3f569f86	0.83837163
68	0x3f598131	0.84962755
69	0x3f637648	0.8885236
70	0x3f82372d	1.0173088
71	0x3f7a7133	0.9782898
72	0x3f81b9f2	1.0134871
73	0x3f5dc130	0.86622906
74	0x3f9704e4	1.1798368
75	0x3f5de3e0	0.86675835
76	0x3f8a097e	1.0784147
77	0x3f801a88	1.0008097
78	0x3f6a0fa8	0.9143014
79	0x3f7a4ed2	0.9777652
80	0x3f6c184c	0.92224574
81	0x3f870ace	1.0550172
82	0x3f52b836	0.82312334
83	0x3f7383b5	0.95122844
84	0x3f6f8af4	0.935714
85	0x3f8867df	1.0656699
86	0x3f70442e	0.93854034
87	0x3f4867df	0.78283495
88	0x3f6e2091	0.9301844
89	0x3f871166	1.0552185
90	0x3f793e86	0.9736103
91	0x3f8c3e6f	1.0956553
92	0x3f6ca118	0.9243331
93	0x3f89550f	1.0729083
94	0x3f8d743f	1.10511
95	0x3f830332	1.023535
96	0x3f911e81	1.1337434
97	0x3f22b288	0.6355367
98	0x3f1a4de4	0.602751
99	0x3f23a04c	0.6391647
100	0x3f125ea0	0.57175636
101	0x3f29a382	0.6626512
102	0x3f4bbff9	0.795898
103	0x3f933c0d	1.1502701
104	0x3f48325c	0.7820184
105	0x3f452511	0.77009684
106	0x3f31cf86	0.6945728
107	0x3f6131be	0.87966526
108	0x3f3163f5	0.6929315
109	0x3f464db3	0.7746231
110	0x3f25f1e4	0.6482222
111	0x3f0a59b5	0.5404313
112	0x3f207baf	0.62688726
113	0x3f391e32	0.723117
114	0x3f402c00	0.7506714
115	0x3f9780c7	1.1836175
116	0x3f355be3	0.70843333
117	0x3f417d08	0.7558141
118	0x3f3bc18f	0.7334222
119	0x3f2fbf5a	0.68651354
120	0x3f25e7fa	0.64807093
121	0x3f425f78	0.75926924
122	0x3f35ce3f	0.7101783
123	0x3f861476	1.0474994
124	0x3f1d4e35	0.6144746
125	0x3f43d0c3	0.7649042
126	0x3f217d1e	0.6308154
127	0x3f316cf4	0.69306874
128	0x3f2d3cb0	0.67670727
129	0x3f4ad388	0.7922902
130	0x3f340121	0.7031422
131	0x3f36340c	0.7117317
132	0x3f32e1c4	0.6987574
133	0x3f2ddf3a	0.6791874
134	0x3f2c4051	0.6728564
135	0x3f3c5dd4	0.7358067
136	0x3f59eac9	0.8512388
137	0x3f477683	0.7791521
138	0x3f43887b	0.7638013
139	0x3f46251e	0.77400386
140	0x3f512957	0.81703705
141	0x3f3e1287	0.7424702
142	0x3f3e5e13	0.74362296
143	0x3f3a01c3	0.7265894
144	0x3f170b35	0.59001476
145	0x3f41d904	0.75721765
146	0x3f2be18a	0.6714102
147	0x3f2f360e	0.68441856
148	0x3f195172	0.598899
149	0x3f36edef	0.7145681
150	0x3f48800c	0.78320384
151	0x3f0cbdaa	0.54976904
152	0x3f412e6e	0.7546147
153	0x3f2d74a4	0.67756104
154	0x3f31738a	0.69316924
155	0x3f33bd71	0.7021094
156	0x3f20fcb2	0.6288558
157	0x3f24bf7a	0.6435467
158	0x3f1c4c78	0.6105418
159	0x3f618ccd	0.8810547
160	0x3f32acae	0.6979474
161	0x3f40b7fc	0.7528074
162	0x3f418581	0.75594336
163	0x3f544498	0.82917166
164	0x3f4e7c26	0.80658185
165	0x3f6bcbfb	0.92108124
166	0x3f6138a6	0.87977064
167	0x3f623214	0.88357663
168	0x3f2ccbdb	0.6749856
169	0x3f4384a7	0.76374286
170	0x3f7a0923	0.9767019
171	0x3f5d6b64	0.8649199
172	0x3f5895c2	0.8460351
173	0x3f4f9e6c	0.8110111
174	0x3f4fc37c	0.8115766
175	0x3f3c0ba0	0.7345524
176	0x3f378bf8	0.7169795
177	0x3f35b4da	0.7097908
178	0x3f30cf5a	0.69066393
179	0x3f4387fa	0.7637936
180	0x3f499225	0.78738624
181	0x3f255c6b	0.64594144
182	0x3f371ac3	0.7152521
183	0x3f1f076e	0.6212071
184	0x3f4ec483	0.80768603
185	0x3f52ae6c	0.82297397
186	0x3f6b49f0	0.91909695
187	0x3f5b676f	0.857047
188	0x3f52bba1	0.8231755
189	0x3f50c0c8	0.8154416
190	0x3f49816f	0.78713125
191	0x3f5f2b07	0.8717503
192	0x3f4dd7a9	0.80407196
193	0x3f1f1d2f	0.62153906
194	0x3f2bc7ad	0.67101556
195	0x3f2aba3e	0.66690433
196	0x3f494ffc	0.7863767
197	0x3f22c1c8	0.63576937
198	0x3f07b196	0.5300535
199	0x3f48ca05	0.7843326
200	0x3f0b0a9c	0.54313064
201	0x3f125a6e	0.57169235
202	0x3f528862	0.82239354
203	0x3f879037	1.0590886
204	0x3f3e533b	0.7434575
205	0x3f2b2456	0.6685232
206	0x3f264e49	0.64963204
207	0x3f35da86	0.71036565
208	0x3f1a11b8	0.60183287
209	0x3f3f8c38	0.7482333
210	0x3f81e1ee	1.0147073
211	0x3f4c37d2	0.79772675
212	0x3f4992a5	0.78739387
213	0x3f2dd061	0.67896086
214	0x3f25cf2f	0.6476926
215	0x3f37b2ea	0.71757376
216	0x3f1a1514	0.6018841
217	0x3f1ecb34	0.62028813
218	0x3f831c39	1.0242988
219	0x3f69c532	0.9131652
220	0x3f1cbe01	0.6122742
221	0x3f1ae4a9	0.6050516
222	0x3f2fd830	0.6868925
223	0x3f32e5a5	0.6988166
224	0x3f1ad90d	0.60487443
225	0x3f187547	0.5955395
226	0x3f205f6f	0.6264562
227	0x3f22ffcd	0.6367157
228	0x3f2b6f89	0.66967064
229	0x3f3c99bb	0.73672074
230	0x3f2555f3	0.64584273
231	0x3f1d7dbd	0.61519986
232	0x3f4725ef	0.7779226
233	0x3f23eabf	0.6403007
234	0x3f2a374e	0.6649064
235	0x3f2bfc21	0.67181593
236	0x3f4a2e35	0.78976756
237	0x3f3588da	0.70911944
238	0x3f2e98c1	0.68201834
239	0x3f44f96a	0.76943076
240	0x3f2f663c	0.6851537
241	0x3f584fcf	0.8449678
242	0x3f31faff	0.69523615
243	0x3f200188	0.62502337
244	0x3f25a746	0.64708364
245	0x3f44e095	0.76905185
246	0x3f25d8bd	0.6478384
247	0x3f39e328	0.7261224
248	0x3f4580f7	0.7714991
249	0x3f3c4407	0.735413
250	0x3f13dac2	0.5775567
251	0x3f49468b	0.78623265
252	0x3f441b14	0.7660382
253	0x3f718ac3	0.9435236
254	0x3f5dc2b0	0.86625195
255	0x3f697b65	0.9120391
