src/examples/C/stats.safetensors (safetensors, 295872 bytes, 4 tensors)

cov_lf_components f4 [12, 12]
00000000: 6f9c 9144 0b3a 6244 b926 6cc3 2bd7 b5c3
00000010: 1255 86be 1f3b 00c2 a907 0442 8886 0642
00000020: 28da d342 3a0a b042 a1f4 0e42 42fd d8c2
00000030: 0b3a 6244 9bda ee44 3201 b7c3 87b5 15c4
00000040: a8c0 d0c1 ccba 2fc2 0cd8 6442 87d6 1a42
00000050: 5387 9a42 cc70 f242 914a 3140 30a8 09c3
00000060: b926 6cc3 3201 b7c3 a002 3c44 dbc6 c142
00000070: 4316 9e41 bd20 fc41 0e73 38c1 81f6 9cc1
00000080: e690 65c2 d0ca 1ec3 1fd9 ab42 dd00 2cc2
00000090: 2bd7 b5c3 87b5 15c4 dbc6 c142 52c1 a544
000000a0: 5773 9941 a9e9 5142 193d 3dc2 ed8b a241
000000b0: bd8f 8bc3 55ee 99c3 1cfe f0c1 4eda 6e43
000000c0: 1255 86be a8c0 d0c1 4316 9e41 5773 9941
000000d0: cabb 3143 29a7 4d43 c805 95c2 4de2 f7c2
000000e0: 9cb2 8ac1 5f80 5142 36b3 cfc1 3a42 88c0
000000f0: 1f3b 00c2 ccba 2fc2 bd20 fc41 a9e9 5142
00000100: 29a7 4d43 88a2 a343 8952 e4c2 26dc 0ec3
00000110: f890 2ac2 073c 5242 9118 60c1 5c87 2d41
00000120: a907 0442 0cd8 6442 0e73 38c1 193d 3dc2
00000130: c805 95c2 8952 e4c2 a3c4 b442 3aef 6342
00000140: bbd6 f641 8ecc 17c1 98bb 2a41 49ed bcc1
00000150: 8886 0642 87d6 1a42 81f6 9cc1 ed8b a241
00000160: 4de2 f7c2 26dc 0ec3 3aef 6342 1b97 1a43
00000170: 42fc a640 b49e 3dc2 8820 7241 6321 2041
00000180: 28da d342 5387 9a42 e690 65c2 bd8f 8bc3
00000190: 9cb2 8ac1 f890 2ac2 bbd6 f641 42fc a640
000001a0: ca8f 1944 3209 1644 b866 a7c2 d743 acc3
000001b0: 3a0a b042 cc70 f242 d0ca 1ec3 55ee 99c3
000001c0: 5f80 5142 073c 5242 8ecc 17c1 b49e 3dc2
000001d0: 3209 1644 1bb7 6744 a720 42c3 c71a b1c3
000001e0: a1f4 0e42 914a 3140 1fd9 ab42 1cfe f0c1
000001f0: 36b3 cfc1 9118 60c1 98bb 2a41 8820 7241
00000200: b866 a7c2 a720 42c3 1d4a 9c43 7f52 5a41
00000210: 42fd d8c2 30a8 09c3 dd00 2cc2 4eda 6e43
00000220: 3a42 88c0 5c87 2d41 49ed bcc1 6321 2041
00000230: d743 acc3 c71a b1c3 7f52 5a41 12cc e643
1164.8885 904.9069 -236.15126 -363.681 -0.26236778 -32.057735 33.00748 33.63138
105.92609 88.01997 35.738895 -108.494644 904.9069 1910.8314 -366.00934 -598.83636
-26.09407 -43.93242 57.210983 38.7095 77.264305 121.22031 2.7701762 -137.65698
-236.15126 -366.00934 752.041 96.88839 19.76087 31.515985 -11.52809 -19.620363
-57.391502 -158.79224 85.924065 -43.000843 -363.681 -598.83636 96.88839 1326.0413
19.181318 52.478184 -47.309666 20.318323 -279.12296 -307.86197 -30.124077 238.85275
-0.26236778 -26.09407 19.76087 19.181318 177.73355 205.65297 -74.51129 -123.94199
-17.337212 52.375362 -25.962505 -4.2580843 -32.057735 -43.93242 31.515985 52.478184
205.65297 327.26978 -114.1612 -142.85995 -42.64157 52.55862 -14.005998 10.845547
33.00748 57.210983 -11.52809 -47.309666 -74.51129 -114.1612 90.384056 56.98362
30.854849 -9.48744 10.670799 -23.615862 33.63138 38.7095 -19.620363 20.318323
-123.94199 -142.85995 56.98362 154.59026 5.218293 -47.404984 15.132942 10.008151
105.92609 77.264305 -57.391502 -279.12296 -17.337212 -42.64157 30.854849 5.218293
614.2467 600.1437 -83.70062 -344.53 88.01997 121.22031 -158.79224 -307.86197
52.375362 52.55862 -9.48744 -47.404984 600.1437 926.861 -194.12755 -354.2092
35.738895 2.7701762 85.924065 -30.124077 -25.962505 -14.005998 10.670799 15.132942
-83.70062 -194.12755 312.579 13.645141 -108.494644 -137.65698 -43.000843 238.85275
-4.2580843 10.845547 -23.615862 10.008151 -344.53 -354.2092 13.645141 461.5943

mean_hf_remainder f4 [4, 96, 96]
00000000: 2922 a33c b130 81bd 01b9 86bc 0000 c73a
00000010: 3c68 8f3c cfe1 0ebe 202e be3c 9046 18bb
00000020: bc3f 8ebc e04c 5dbc 78eb 8ebc 1cea c9bc
00000030: 8c6d 3d3c 2251 813d 54ea c13d 4ee0 cf3d
00000040: a38f 3d3d 4a5e 5ebc 2c5e 013e dc1b b93d
00000050: 3caa 063d 225b b73d b4fa 413d a929 943d
00000060: c089 8e3d 82ed 71bc be4f c13c 00c0 c438
00000070: 446d e73c 3aa8 963d 4964 7e3d bed3 083d
00000080: 74ef 1a3c 4599 063d b8fd 8a3d 0195 a13d
00000090: 624a b63d 2d04 823d 5279 3f3e 6070 bb3d
000000a0: c0c7 dd3d 5b6f ad3d b24b 513d 76f6 523e
000000b0: 8026 7a3a 00b2 71bb c4b0 c03c 9c28 a23d
000000c0: 4040 603c 8820 623d 1a8e 123e 8d04 013d
000000d0: 38d9 cb3c e9ea 6b3c 8c5e e73d 9b3e 033d
000000e0: a0b9 353d 2560 84bd eb37 ba3c fb74 26bd
000000f0: 8b20 9a3d d445 54bc 40f7 42bd 7485 0dbc
00000100: 5fce 8fbd 5b34 aa3c c689 a0bd 7c29 33bd
00000110: 2fb0 40bd 149f bd3c fd69 81bd a413 b0bd
00000120: a0aa d1bb 0f8a 3c3d ca73 9ebd dafa ed3b
00000130: d79c 333d 2ac1 933d a48a 843c 9623 10bc
00000140: 001e 4fb9 9115 853d 5a54 adbd ee42 cbbd
00000150: 21b1 94bd e4a0 c43c 9b3d 03be e6cb febc
00000160: 9421 03bc 21c2 ab3c c963 5cbe 7f25 1ebe
00000170: c001 2d3b 9e3d 37bd 6e71 03be f63e 47be
00000180: 349c 8abd e6fe 2abe f363 87bd 788c 0ebe
00000190: 365c 0abd be87 bebd 5ca8 02bb 88a0 243d
000001a0: 904e f5bb 0c60 343d 1406 04bd b04d 073e
000001b0: b0c9 20bb b44e 633c 4720 ac3d 3016 883d
000001c0: 1d9c 933d 2e73 02bd 8efb eabc e55d 223e
000001d0: 50c9 f33c 005d 603d 16b5 ea3d a27e 203d
000001e0: 88e9 9d3d 8084 cdba 53ad 483d 719c 193e
000001f0: def4 b63c 5dfd a53d f07a 63bc 5e7f 183d
00000200: 9c41 af3c ec01 253c 2727 e53d 1afa c43d
00000210: f484 023e a541 303d 00a1 8c3d c790 753c
00000220: bce9 013e 4eac 0b3e 5aed 113d 0014 64bb
00000230: 90b8 7cbc 9cee d7bc 34a0 b73c 909f c63d
00000240: 6612 853d ed28 d93d 63f0 673d 439b c53d
00000250: a8c8 a63c f87f d33c 24a7 9fbc 4e6d 3bbd
00000260: 6ff1 8ebd 7986 a8bd ba11 8bbd b0fc 5ebd
00000270: e00f 673c 2b16 1abd ae0b bf3c 3c2f 83bb
00000280: 6625 86bc bc75 1ebd fe02 b1bb 0018 05bd
00000290: 6a49 c53b ceb4 8a3d 1520 5f3d dc6d b53d
000002a0: c844 87bd bc22 18bc 6b0f 0c3c 6a0a b9bd
000002b0: 6e0c 6f3c 0ca1 6dbd e75e b83c 13fa c4bd
000002c0: 5ee2 c0bd 00d9 4239 10e2 f0bd 2bd7 1d3d
000002d0: 483f b93c de81 18bd 98b5 5fbd 5e90 48bd
000002e0: aaba 13be 4ca3 8ebd e495 04be e80b ffbc
000002f0: de27 d9bc 7dad bbbd e2c2 46be 947e 93be
00000300: 0f84 76bd 208d b9bd 849f e13c efd8 cfbc
00000310: a026 973a 7c49 3abc 6b91 833c c67c 1ebd
00000320: 142f 403b a869 813d 26ea 04bd 1da1 f83d
00000330: 3a1e c03d 7833 a23c 0354 e53d 1448 623c
00000340: 4ac6 8c3d 0f70 a93d 5e50 133d ab92 e53d
00000350: f479 9c3c 5a86 993d 5b70 003e 3ccd 4c3c
00000360: 565e 8c3d 14c4 d83c 04af 593d 14cf e63d
00000370: b2c7 313e 3a8a 3c3d aad4 113d 7cf4 de3c
00000380: 1cac 713c 06c4 bf3d bfeb 953d ba07 dd3d
00000390: d020 bc3d d35a ad3d f850 ae3d c721 da3d
000003a0: 3971 183e ec21 1c3e f004 c73d 7761 26bc
000003b0: 3928 d93d 0ad8 903c 34a2 963d 78fa b2bd
000003c0: 9068 bd3d 54c1 7e3d 22a2 083e ac52 053e
000003d0: 29d8 7c3d 64f9 823c 0286 883d 0c9e 44bc
000003e0: d8ab 9fbd 70a9 4a3d 261e acbc 6404 26bd
000003f0: 8cda ecbc e681 68bd e09d e2bc 7387 26bd
0.01991375 -0.06308115 -0.016445639 0.0015182495 0.017505758 -0.13953327 0.023215353 -0.0023235418
-0.017364375 -0.013507098 -0.017446265 -0.024647765 0.011561763 0.06314303 0.09468523 0.101502046
0.04627956 -0.013572285 0.1263358 0.09038517 0.032877192 0.08952929 0.04735823 0.072345085
0.069598675 -0.014766099 0.023597594 9.381771e-05 0.028250344 0.073563054 0.062107358 0.033405058
0.009456504 0.032861013 0.06786674 0.07889748 0.08900906 0.06348453 0.18698624 0.09152293
0.10829115 0.08468505 0.05109758 0.2060183 0.000954248 -0.0036879778 0.023521788 0.07917902
0.013687193 0.055206805 0.1431202 0.03149848 0.024883851 0.014399269 0.1129733 0.032042127
0.04436648 -0.064636506 0.022731742 -0.040638905 0.07525738 -0.012956101 -0.047599077 -0.008637775
-0.07021784 0.020776918 -0.07838778 -0.043740734 -0.04704302 0.023147143 -0.06319044 -0.08597496
-0.006398514 0.0460301 -0.07736929 0.00726257 0.043850746 0.072145775 0.01617939 -0.008797547
-0.00019752234 0.06498254 -0.084633544 -0.09924875 -0.07260347 0.0240025 -0.1281647 -0.031103086
-0.008003611 0.020966591 -0.2152244 -0.15443991 0.0026398748 -0.044736497 -0.12836239 -0.19457611
-0.06768075 -0.16698799 -0.06610861 -0.13920772 -0.033779345 -0.093032345 -0.0019936776 0.040192157
-0.007486172 0.04403691 -0.03223236 0.13213229 -0.0024534278 0.013873745 0.08404594 0.06644857
0.072075106 -0.031848125 -0.028684404 0.1585613 0.02975908 0.05477619 0.11460321 0.039183266
0.07710558 -0.0015679747 0.04899342 0.15001084 0.022333559 0.08104966 -0.013884291 0.03723084
0.02139359 0.010071259 0.11189108 0.096180156 0.1274603 0.043031354 0.06866646 0.014988131
0.12686819 0.13639948 0.035626747 -0.003480196 -0.0154248625 -0.026358895 0.022415258 0.09698403
0.0649765 0.10603509 0.056625735 0.096487544 0.020359352 0.025817856 -0.019488879 -0.045758538
-0.069796436 -0.082287736 -0.067904904 -0.0544402 0.014102906 -0.037618797 0.023320999 -0.0040034335
-0.016375255 -0.0386865 -0.005401968 -0.03249359 0.0060207145 0.06772767 0.054473955 0.08858845
-0.06604916 -0.009285625 0.008548598 -0.090351894 0.014590366 -0.058014914 0.02250619 -0.0961801
-0.09418176 0.0001858212 -0.11761868 0.03853528 0.022613183 -0.037233226 -0.05461654 -0.048965804
-0.14426675 -0.0696474 -0.12947804 -0.031133607 -0.026508268 -0.0916395 -0.1941028 -0.2880751
-0.060184535 -0.090601206 0.027541883 -0.025371997 0.0011531897 -0.011370059 0.016060552 -0.038693212
0.0029324936 0.063189805 -0.032449864 0.12140105 0.09380765 0.019799933 0.111976646 0.01381113
0.06873758 0.082733266 0.035965316 0.11209615 0.01910112 0.07496329 0.1254286 0.012500104
0.06853931 0.026460685 0.053145424 0.11269966 0.17361334 0.04603026 0.035603203 0.027216189
0.014750507 0.093635604 0.073203556 0.10792489 0.09185946 0.08464589 0.08511537 0.10650974
0.14886941 0.15247315 0.09717739 -0.010155073 0.10603375 0.01768114 0.073551565 -0.087391794
0.09248459 0.06219609 0.13343099 0.13019818 0.061729584 0.01598806 0.06666185 -0.012000572
-0.077964485 0.049477994 -0.02101047 -0.04053153 -0.028912805 -0.056764506 -0.027663171 -0.04065652

mean_lf_components f4 [12]
00000000: 2864 2242 450b d6c1 9d54 8b41 e482 bb41
00000010: 8f98 253f a2ca 5c3f fc01 1ebf 3268 6cbf
00000020: da29 1f41 a895 0541 069b 2a40 0069 ccc0
40.59781 -26.755503 17.416315 23.438911 0.6468591 0.86246693 -0.6172178 -0.9234649
9.947718 8.349037 2.6657119 -6.3878174

var_hf_remainder f4 [4, 96, 96]
00000000: d3f9 7f3f 3794 423f 1812 243f 4f8b 3e3f
00000010: f0f3 543f 67ed 1c3f def8 3b3f d09c 973f
00000020: d3db 6c3f f408 233f a985 2f3f 4d96 4c3f
00000030: e472 423f 6bf7 4d3f 6cc8 333f 0428 463f
00000040: 6b52 343f 96ab 603f d0f7 573f 0643 443f
00000050: 460a 6c3f aaac 6d3f 9354 3d3f 890f 623f
00000060: 1414 423f 597b 403f 443a 2e3f 51ce 423f
00000070: 93ca 243f 0303 243f 0a7a 053f 08b1 433f
00000080: 85b5 2b3f 4d41 383f f848 233f bc07 413f
00000090: aa5a 433f a53b 2e3f 5f5b 3f3f 3a66 3e3f
000000a0: a445 6b3f 0722 573f 0dba 3b3f 7594 3f3f
000000b0: 889c 4b3f d8b9 873f 9b0f 5b3f 3423 5e3f
000000c0: 42ce 343f ff20 543f f662 283f 90b3 583f
000000d0: 7c59 433f 1ec6 413f 7bc2 403f a899 3a3f
000000e0: 9d59 3d3f 96e9 523f 502a 4d3f faa1 263f
000000f0: 1c19 423f 1b59 393f 3aa2 4b3f be8b 443f
00000100: bf2c 193f 85fa 363f 6fc5 423f 7f47 283f
00000110: 13cf 293f dfe8 3b3f 3a17 4d3f 4175 3b3f
00000120: 5efe 4b3f 97c0 2a3f c209 613f 3a4d 313f
00000130: 362d 5f3f 2f25 433f fbd7 2c3f 2146 483f
00000140: b061 413f d555 613f 4895 243f f9ab 413f
00000150: 5d12 353f 88a7 693f bbbc 383f 2b1b 293f
00000160: 7c49 443f 042a 6f3f 4b5d 4b3f edd2 5a3f
00000170: d439 423f 5b41 583f 89ae 593f 14cb 5c3f
00000180: 5a73 863f d70f 203f 8fa5 073f a11a 053f
00000190: 08ad 093f c6b2 0e3f 1d55 243f 4ef7 873f
000001a0: e50a 2f3f b663 413f 5d84 133f 94ea 563f
000001b0: 3dd4 0d3f b335 2d3f 375a 013f 760e db3e
000001c0: 0e05 0e3f 558a 0c3f 4f78 293f bfb2 903f
000001d0: 8db7 213f a1f5 2c3f 0e07 383f 38f9 243f
000001e0: 02b0 0e3f 85ef 2f3f e7be 253f 06ce 6b3f
000001f0: b269 043f fd6c 1a3f df64 fa3e 0d04 093f
00000200: a884 173f d211 2b3f 5a94 0a3f 120f 1b3f
00000210: 3366 113f 71a7 223f 3028 073f 7c3a 253f
00000220: 82d5 323f f692 373f d4a8 1f3f 6221 243f
00000230: 3d6f 423f bf5b 1a3f 6bf4 123f 1b3f 273f
00000240: ca6e fd3e ff26 223f daf1 0b3f 5dc7 193f
00000250: 6bf3 f23e f8bc 123f c57a 1b3f 594d e33e
00000260: 1fb6 1b3f 6246 0e3f fb39 173f 5b02 143f
00000270: 2519 013f 42d2 f43e 1732 d83e 503e 343f
00000280: 4a6e f83e 2679 083f 88dd 103f 4b60 203f
00000290: a2f6 183f e20e 3f3f 7958 223f 5df9 2d3f
000002a0: e62b f33e 6b32 0f3f d0bc 383f dfde 1f3f
000002b0: e3bd 1d3f fb5f 173f 9b2d 0a3f 938c 0c3f
000002c0: 2a9c f23e 3cdf ea3e 36bb 003f 8eb5 183f
000002d0: 984e 143f 124f f63e 0f32 113f 84c8 053f
000002e0: 97b2 2a3f 162f 373f f3f4 483f 9200 2c3f
000002f0: 1ad9 213f e45a 093f 852b 143f 49db 283f
00000300: eaff 3e3f f1e1 003f 65c3 143f 5426 0e3f
00000310: 8087 523f 1ce9 0c3f 6fa6 e83e e8e1 243f
00000320: bdc7 fc3e db42 113f be5f 423f 4642 8a3f
00000330: 68f9 193f c2c4 023f b1ee 0f3f 51cb 1d3f
00000340: 72c0 043f a9f2 1a3f b7bb 573f cbfb 3d3f
00000350: 109e 213f b270 0f3f d386 083f 0eca 1b3f
00000360: dd77 083f c5c3 f53e 025e 6f3f 6891 4e3f
00000370: 659c 053f 02d9 063f a531 073f b8d9 1b3f
00000380: 75d6 ef3e 1097 ff3e 2ede 043f 8e21 0b3f
00000390: 1c32 1c3f 84d9 283f e693 083f 839a ea3e
000003a0: 6c03 2b3f 4498 103f e7af 0f3f bcdc 0e3f
000003b0: 1782 303f 9a9d 1c3f dc03 f83e c9df 153f
000003c0: cad8 153f 12d1 383f 1a66 113f 7f5b 013f
000003d0: 3160 fb3e a01a 233f aa66 023f d71c 1e3f
000003e0: 014b 1d3f 9b22 1a3f 1837 e63e deb5 213f
000003f0: 4880 2c3f 63ce 473f 822d 2e3f ddca 393f
0.99990577 0.7600741 0.6409011 0.7443132 0.8318472 0.6129975 0.73426616 1.184473
0.92522925 0.63685536 0.68563324 0.7991684 0.7595656 0.80455655 0.70227695 0.7740481
0.7043826 0.8776182 0.84362507 0.7666477 0.92203176 0.9284159 0.73957175 0.88304955
0.75811887 0.75188214 0.68057656 0.76096064 0.64371604 0.64067096 0.5213934 0.76442003
0.6707385 0.7197464 0.63783216 0.75402427 0.7631022 0.6805976 0.74748796 0.74374735
0.9190314 0.84036297 0.73330766 0.748359 0.7953572 1.060359 0.8557069 0.86772466
0.70627224 0.8286285 0.65776 0.8464899 0.7630842 0.7569293 0.75296754 0.7289071
0.73964864 0.82387674 0.8014269 0.65090907 0.75819564 0.7240159 0.79544413 0.7677573
0.598339 0.7147601 0.7608251 0.65734094 0.66331595 0.7340221 0.80113566 0.7322579
0.7968501 0.6670012 0.87905514 0.69258463 0.8717836 0.7622861 0.6751706 0.7823201
0.75539684 0.88021594 0.64290285 0.75653034 0.70731145 0.9127126 0.7216298 0.6605708
0.7667463 0.93423486 0.7943923 0.854781 0.7586949 0.84474725 0.85031945 0.8624737
1.0503953 0.6252417 0.52987 0.5199376 0.5377965 0.55741537 0.6419237 1.0622346
0.68376 0.7554277 0.57623845 0.8395169 0.55401975 0.67660064 0.5052828 0.4278447
0.5547646 0.5489858 0.661992 1.1304549 0.631707 0.675623 0.71885765 0.6444278
0.55737317 0.6872485 0.6474442 0.9211124 0.5172378 0.6032255 0.48905084 0.53521806
0.5918679 0.66824067 0.54132617 0.6056987 0.5679657 0.63536745 0.52795696 0.64542365
0.6985704 0.7170862 0.62366986 0.6411344 0.75950986 0.60296243 0.574042 0.65330666
0.49498588 0.63340753 0.5466591 0.6006983 0.47451338 0.57319593 0.60734206 0.4439495
0.6082477 0.55576146 0.59072846 0.57816094 0.5042899 0.47816664 0.42225716 0.7040758
0.48521644 0.5330986 0.5658803 0.6264693 0.5975133 0.74632084 0.6341625 0.67958623
0.4749443 0.55936307 0.72163105 0.6244945 0.6161787 0.5913083 0.5397584 0.54902
0.4738477 0.4587344 0.5028566 0.5965203 0.57932425 0.481072 0.5671701 0.5225909
0.66678756 0.7155622 0.7849876 0.6718837 0.63221896 0.53654313 0.57878906 0.659596
0.74609244 0.5034476 0.5811065 0.55527234 0.82238007 0.55043197 0.4543948 0.64407206
0.49371138 0.5674264 0.7592734 1.0801475 0.6014619 0.5108148 0.5622359 0.6163836
0.5185615 0.6052652 0.84270805 0.7421233 0.6313181 0.56031334 0.53330725 0.60855186
0.53307897 0.48000923 0.9350282 0.8069062 0.52191764 0.5267488 0.52810127 0.6087909
0.46843305 0.4991994 0.5190152 0.54348075 0.6101396 0.659569 0.53350675 0.45821008
0.66802096 0.5648234 0.5612778 0.55805564 0.689485 0.6117798 0.48440444 0.58544594
0.5853392 0.72194016 0.5679642 0.50530237 0.49096826 0.637125 0.509379 0.61762756
0.6144257 0.60209054 0.44963908 0.6316813 0.6738324 0.78049296 0.6803819 0.7257517
