src/examples/A1/stats.safetensors (safetensors, 295080 bytes, 2 tensors)

mean_pixels f4 [4, 96, 96]
0	0xbfb08594	-1.3790765
1	0xbf825b5c	-1.0184131
2	0xbf6e1b00	-0.9300995
3	0xbf7745f3	-0.9659111
4	0xbfa1fdac	-1.265554
5	0xbf90857e	-1.1290739
6	0xbf8c98b7	-1.0984105
7	0xbf89fbec	-1.0780005
8	0xbf7af93f	-0.9803657
9	0xbf9feec7	-1.2494744
10	0xbfa1b393	-1.2632927
11	0xbf8ac34e	-1.0840852
12	0xbf501feb	-0.812987
13	0xbf79e198	-0.97609854
14	0xbf886be6	-1.0657928
15	0xbf722127	-0.94581836
16	0xbf353b96	-0.70794046
17	0xbf7408f6	-0.95326173
18	0xbf9e1f0f	-1.2353228
19	0xbf75b7e0	-0.95983696
20	0xbf6f63c3	-0.935116
21	0xbf95ffc4	-1.1718678
22	0xbf898023	-1.0742229
23	0xbf89956d	-1.0748726
24	0xbf8eb56e	-1.1149118
25	0xbf8427ba	-1.0324624
26	0xbf6d9cdb	-0.9281747
27	0xbf73d3b6	-0.9524492
28	0xbf194fc8	-0.5988736
29	0xbf6617be	-0.8987998
30	0xbf120f3a	-0.57054484
31	0xbf7c53f8	-0.98565626
32	0xbef3975b	-0.47576413
33	0xbf5d0fab	-0.8635203
34	0xbf4e123a	-0.8049656
35	0xbf7116eb	-0.94175595
36	0xbf2337e8	-0.6375718
37	0xbf8391bc	-1.027885
38	0xbf6fb9cb	-0.9364287
39	0xbf8c7759	-1.0973922
40	0xbf11ae30	-0.56906414
41	0xbf6a6b76	-0.9157022
42	0xbf383eb3	-0.7197067
43	0xbedab0b8	-0.4271295
44	0xbf1d081c	-0.613405
45	0xbf88356b	-1.0641302
46	0xbf84c091	-1.0371267
47	0xbf821e27	-1.0165452
48	0xbf662450	-0.8989916
49	0xbf4f608a	-0.8100668
50	0xbf725d96	-0.9467405
51	0xbf6259c6	-0.88418233
52	0xbf95de20	-1.1708412
53	0xbf7eed26	-0.9958061
54	0xbf810868	-1.008069
55	0xbf67f166	-0.9060272
56	0xbf6726c0	-0.902935
57	0xbf82028d	-1.0157028
58	0xbf803073	-1.0014786
59	0xbf901de6	-1.1259124
60	0xbf7ec336	-0.9951662
61	0xbf492262	-0.7856809
62	0xbfa6a982	-1.302048
63	0xbf63e750	-0.8902483
64	0xbfa00a84	-1.2503209
65	0xbf84b2bc	-1.0367045
66	0xbfac109e	-1.3442571
67	0xbfad8d44	-1.3558736
68	0xbf9b657f	-1.2140349
69	0xbfa6f84c	-1.3044524
70	0xbfaafa2e	-1.3357599
71	0xbf89dc21	-1.0770303
72	0xbfc1043f	-1.5079421
73	0xbf8e78df	-1.1130637
74	0xbfd32dc0	-1.6498337
75	0xbfa84046	-1.3144615
76	0xbf8d08dc	-1.1018329
77	0xbf6f6db6	-0.9352678
78	0xbf7208db	-0.9454476
79	0xbf8e5f92	-1.1122916
80	0xbf7f9744	-0.9984019
81	0xbf7318ac	-0.9495952
82	0xbf8c4bd3	-1.096064
83	0xbf6e30eb	-0.9304339
84	0xbf582b13	-0.84440726
85	0xbf7073ef	-0.939269
86	0xbf994d50	-1.1976719
87	0xbf80304f	-1.0014743
88	0xbfa8da73	-1.3191665
89	0xbf990fb3	-1.1957916
90	0xbf83c296	-1.0293758
91	0xbf81cc59	-1.0140487
92	0xbfb24b04	-1.3929143
93	0xbfaf2eb8	-1.3686132
94	0xbfb6b80b	-1.4274915
95	0xbf4b1cb8	-0.79340696
96	0xbfa7eb93	-1.3118767
97	0xbf52da24	-0.82364106
98	0xbf7dea80	-0.99185944
99	0xbf5f2fd3	-0.8718235
100	0xbf89bc71	-1.0760633
101	0xbf877e54	-1.0585427
102	0xbf89a04e	-1.0752046
103	0xbf747cd3	-0.95502967
104	0xbf88c74e	-1.0685823
105	0xbf47e3d8	-0.78082037
106	0xbf6f4186	-0.93459356
107	0xbf98aa66	-1.1927001
108	0xbf6a11ae	-0.9143323
109	0xbf8bbedb	-1.091762
110	0xbf44cf6e	-0.7687901
111	0xbfa75f00	-1.3075867
112	0xbf75da18	-0.9603591
113	0xbf8d8534	-1.1056275
114	0xbf73e17b	-0.9526593
115	0xbf827936	-1.0193241
116	0xbf6105fe	-0.8789977
117	0xbf93bbc0	-1.1541672
118	0xbf78f5ec	-0.97250247
119	0xbf508a12	-0.8146068
120	0xbf8b3ef0	-1.0878582
121	0xbf691d5b	-0.9106042
122	0xbf575c06	-0.8412479
123	0xbf469b26	-0.7758049
124	0xbf565744	-0.83726907
125	0xbef5b2a8	-0.47987866
126	0xbf43eed0	-0.76536274
127	0xbf63f9a4	-0.89052796
128	0xbf367048	-0.7126508
129	0xbf788b47	-0.9708752
130	0xbf36728f	-0.7126855
131	0xbf85730b	-1.0425733
132	0xbf55b170	-0.83473873
133	0xbf4f95d6	-0.81088006
134	0xbf190356	-0.59770715
135	0xbf69c318	-0.91313314
136	0xbf4f44db	-0.8096444
137	0xbf55803f	-0.83398813
138	0xbf28c3a7	-0.6592354
139	0xbf3cc727	-0.7374138
140	0xbf401483	-0.750313
141	0xbf75f5c8	-0.9607816
142	0xbf54f340	-0.8318367
143	0xbf4bd7a6	-0.7962593
144	0xbf7a2cee	-0.9772481
145	0xbf2fa9ce	-0.68618476
146	0xbf6c20dc	-0.9223764
147	0xbf77f868	-0.9686341
148	0xbf3c2f70	-0.73509884
149	0xbf7fc940	-0.9991646
150	0xbf8239a2	-1.0173838
151	0xbf5c42a8	-0.8603921
152	0xbf6f7294	-0.9353421
153	0xbf660276	-0.89847505
154	0xbf9103c6	-1.1329277
155	0xbf8f3274	-1.1187272
156	0xbf6e2d64	-0.9303801
157	0xbf65f81c	-0.8983171
158	0xbf75b936	-0.95985734
159	0xbf8688e7	-1.0510529
160	0xbfab697b	-1.3391565
161	0xbf800cd6	-1.0003917
162	0xbf92b990	-1.1462879
163	0xbf9024b2	-1.1261199
164	0xbf8845ba	-1.0646279
165	0xbf91439b	-1.1348757
166	0xbfa4364b	-1.2829069
167	0xbfa4c202	-1.2871706
168	0xbf85f1c4	-1.0464406
169	0xbf7a324c	-0.97732997
170	0xbf87b2f4	-1.0601487
171	0xbf83e58e	-1.030443
172	0xbf7553ec	-0.9583118
173	0xbf830260	-1.02351
174	0xbf885c58	-1.0653181
175	0xbf847274	-1.0347428
176	0xbf860798	-1.0471067
177	0xbf7697d3	-0.96325415
178	0xbf95a0e0	-1.168972
179	0xbf6d43c3	-0.9268152
180	0xbf961352	-1.1724646
181	0xbf823528	-1.0172472
182	0xbf682b54	-0.90691113
183	0xbf829ef0	-1.0204754
184	0xbf8cd4b8	-1.1002417
185	0xbf6a9ecc	-0.91648555
186	0xbf6e5a0c	-0.9310615
187	0xbfa670e3	-1.30032
188	0xbf7638e0	-0.96180534
189	0xbf9a5afc	-1.2059016
190	0xbf9622e7	-1.1729401
191	0xbf812243	-1.0088581
192	0xbfb21f5b	-1.3915819
193	0xbf6bb5b6	-0.92074144
194	0xbf8b0858	-1.0861921
195	0xbf82d836	-1.0222232
196	0xbf84c3eb	-1.037229
197	0xbf9c6148	-1.2217188
198	0xbf87785a	-1.0583603
199	0xbf88afba	-1.0678627
200	0xbf54931f	-0.8303699
201	0xbfa5048f	-1.2892016
202	0xbf5c3110	-0.86012363
203	0xbf7aa678	-0.9791026
204	0xbf56ab20	-0.83854866
205	0xbf7e3c56	-0.99310815
206	0xbf74b4c3	-0.9558832
207	0xbf7cf4ce	-0.9881104
208	0xbf6a9f44	-0.9164927
209	0xbf71ac83	-0.94403857
210	0xbf4c5530	-0.79817486
211	0xbf938ff6	-1.1528308
212	0xbf8d1b9b	-1.102405
213	0xbf69316f	-0.91091055
214	0xbf78553b	-0.9700505
215	0xbf6a9bea	-0.91644156
216	0xbf6ce97e	-0.9254378
217	0xbf537893	-0.82605857
218	0xbf364530	-0.7119932
219	0xbf8940e2	-1.0722926
220	0xbf2da8de	-0.67835796
221	0xbf4199a4	-0.7562506
222	0xbf4eb918	-0.8075118
223	0xbf3e6868	-0.7437806
224	0xbf76d116	-0.9641279
225	0xbf5c41e0	-0.8603802
226	0xbf15690f	-0.5836343
227	0xbf89a89b	-1.0754579
228	0xbf45aac4	-0.7721369
229	0xbf1702d6	-0.589887
230	0xbf57ac7e	-0.8424758
231	0xbf5c9960	-0.8617153
232	0xbf3d2286	-0.73880804
233	0xbf461583	-0.77376574
234	0xbf4714b4	-0.77765965
235	0xbf642d2e	-0.8913144
236	0xbf5e2e3a	-0.86789286
237	0xbf39253b	-0.72322434
238	0xbf5abcac	-0.8544414
239	0xbf48bcb8	-0.7841296
240	0xbf35d306	-0.7102512
241	0xbf4b704b	-0.7946822
242	0xbf80d970	-1.0066357
243	0xbf700798	-0.9376159
244	0xbf301627	-0.687838
245	0xbf52a793	-0.8228695
246	0xbf8039a0	-1.0017586
247	0xbf896b8b	-1.0735945
248	0xbf6b0410	-0.91803074
249	0xbf7bbe76	-0.98337495
250	0xbf820781	-1.015854
251	0xbf5a5b42	-0.852955
252	0xbf555712	-0.83335984
253	0xbf8774c8	-1.0582514
254	0xbf5f6283	-0.8725969
255	0xbf481d66	-0.7816986

var_pixels f4 [4, 96, 96]
0	0x3f282527	0.6568169
1	0x3f1425c4	0.57870126
2	0x3fabfabd	1.3435894
3	0x3eb6ef6e	0.35729545
4	0x3f5549fd	0.8331602
5	0x3ee15d5d	0.44016543
6	0x3f48623c	0.78274894
7	0x3f932540	1.1495743
8	0x3f858933	1.0432495
9	0x3f09d7cd	0.5384491
10	0x3f07cbc7	0.53045315
11	0x3ed23219	0.41053846
12	0x3f0eb15a	0.55739367
13	0x3f5541ba	0.83303416
14	0x3f22f49e	0.63654506
15	0x3f12c74a	0.5733534
16	0x3f8d422f	1.1035823
17	0x3f67017d	0.90236646
18	0x3f003f2b	0.50096387
19	0x3f10189b	0.56287545
20	0x3f1872ed	0.5955036
21	0x3f0a0c64	0.53925157
22	0x3f0ba9ba	0.5455586
23	0x3f46c427	0.77643055
24	0x3eabd364	0.33559716
25	0x3f0e1c9f	0.5551242
26	0x3f26dde4	0.6518233
27	0x3f5b12ea	0.85575736
28	0x3f751584	0.95735955
29	0x3f16b9a2	0.58877003
30	0x3f536ccf	0.82587904
31	0x3ec6b467	0.3880951
32	0x3f21a553	0.6314289
33	0x3f170c14	0.59002805
34	0x3fa3e4c5	1.280419
35	0x3ee1fd32	0.44138485
36	0x3f510335	0.8164552
37	0x3f0ec6cf	0.5577211
38	0x3f69492d	0.9112728
39	0x3f307ed4	0.68943524
40	0x3f1bb93e	0.6082953
41	0x3f1a37ef	0.602416
42	0x3f6f934f	0.9358415
43	0x400f2ed3	2.237233
44	0x3f6b1828	0.91833735
45	0x3f6d2caa	0.92646277
46	0x3f696391	0.9116755
47	0x3f2b0bca	0.66814864
48	0x3f4ccbc6	0.79998434
49	0x3f3f6887	0.7476887
50	0x3f22c078	0.63574934
51	0x3f480c60	0.7814388
52	0x3f0c0df0	0.54708767
53	0x3f015911	0.5052653
54	0x3edb69c1	0.4285412
55	0x3f4e79cb	0.8065459
56	0x3f433339	0.76250035
57	0x3f474f9d	0.77855855
58	0x3efdd921	0.4957972
59	0x3f6bffe8	0.92187357
60	0x3eaf243f	0.3420734
61	0x3faf1258	1.3677473
62	0x3f2dafe6	0.67846525
63	0x3f64ee76	0.8942636
64	0x3ec8f8aa	0.39252216
65	0x3f9ff9ff	1.2498168
66	0x3f13610f	0.57569975
67	0x3f214577	0.6299662
68	0x3f33addf	0.7018718
69	0x3ee9c52b	0.4565824
70	0x3f0f7231	0.5603362
71	0x3f1023f5	0.56304866
72	0x3f68f008	0.9099126
73	0x3ebfdcc6	0.37473124
74	0x3ebd5dcd	0.36985627
75	0x3ee9acb2	0.4563957
76	0x3ed42f93	0.41442546
77	0x3f5104a7	0.81647724
78	0x3f4a7c32	0.79095757
79	0x3f447738	0.76744413
80	0x3f38d3a7	0.72197956
81	0x3f848150	1.0351963
82	0x3f6282f6	0.8848108
83	0x3f22bb5d	0.63567144
84	0x3f3a7363	0.72832316
85	0x3f583646	0.84457815
86	0x3f7c3208	0.9851384
87	0x3f758d6b	0.9591891
88	0x3f3036a3	0.6883337
89	0x3ef9b6e0	0.48772335
90	0x3f352d55	0.70772296
91	0x3f80daea	1.0066807
92	0x3ef36ea1	0.4754534
93	0x3f5e4561	0.86824614
94	0x3f172b3a	0.59050333
95	0x3f953270	1.1656017
96	0x3ee81564	0.4532882
97	0x3f70865f	0.93955034
98	0x3ed41f1d	0.41429988
99	0x3f115c37	0.56781334
100	0x3f2ba7b1	0.6705275
101	0x3f09836b	0.5371615
102	0x3efd2fa0	0.49450397
103	0x3f2632b8	0.6492114
104	0x3ef6920a	0.48158294
105	0x3f0307d6	0.5118383
106	0x3f2747c3	0.65343875
107	0x3e786307	0.24256526
108	0x3f519fc3	0.818844
109	0x3ed82e12	0.4222265
110	0x3f135f91	0.575677
111	0x3eef3ebf	0.4672756
112	0x3eeee0ad	0.4665579
113	0x3f01a0cd	0.5063599
114	0x3eb5340d	0.35391274
115	0x3f1b098d	0.6056145
116	0x3ef4f32a	0.4784177
117	0x3f2ff16c	0.68727756
118	0x3f1cf889	0.61316735
119	0x3f502b16	0.81315744
120	0x3ed37d2f	0.41306445
121	0x3edc9dd5	0.43089166
122	0x3efa5a83	0.4889718
123	0x3f16915e	0.5881556
124	0x3f09e9bf	0.53872293
125	0x3f056408	0.5210576
126	0x3ea609cb	0.32429346
127	0x3e91a9a8	0.2844975
128	0x3f00373a	0.5008427
129	0x3ecfed07	0.40610525
130	0x3f17f537	0.59358543
131	0x3f1d727a	0.615028
132	0x3ebb11e6	0.36537093
133	0x3f31d06c	0.6945865
134	0x3ef6c2eb	0.48195586
135	0x3f058612	0.521577
136	0x3f3957a6	0.72399366
137	0x3f74b6f5	0.9559167
138	0x3f3a87ae	0.7286328
139	0x3f35c286	0.70999944
140	0x3f501a96	0.81290567
141	0x3f11e401	0.5698853
142	0x3f3abde7	0.7294602
143	0x3f27fec6	0.6562313
144	0x3f04cea4	0.5187781
145	0x3ee763cf	0.45193335
146	0x3edf4ffc	0.4361571
147	0x3eb636ce	0.35588688
148	0x3f053729	0.5203729
149	0x3eb428c4	0.35187352
150	0x3f004127	0.50099415
151	0x3f04321d	0.51638967
152	0x3f2dc56a	0.67879355
153	0x3eef8712	0.46782738
154	0x3ec3738d	0.38174096
155	0x3efcba80	0.49361038
156	0x3effdc16	0.499726
157	0x3f2a7a54	0.6659291
158	0x3f162fc9	0.58666664
159	0x3eca866e	0.39555687
160	0x3e92b185	0.28651062
161	0x3f3aa3dc	0.7290628
162	0x3eeedc9a	0.4665268
163	0x3e93899a	0.2881592
164	0x3f3605d3	0.7110264
165	0x3ea965a1	0.3308535
166	0x3eb151d5	0.34632745
167	0x3ee20015	0.44140688
168	0x3f4baf8e	0.7956475
169	0x3f4f0199	0.8086181
170	0x3f259c80	0.64691925
171	0x3f06da02	0.52676404
172	0x3e9dae21	0.30796912
173	0x3f773a1f	0.9657306
174	0x3ef0b9bd	0.47016707
175	0x3f250c28	0.64471674
176	0x3f63c62e	0.88974273
177	0x3f309f10	0.6899271
178	0x3f7dda83	0.9916155
179	0x3f4de636	0.804294
180	0x3f6d05ab	0.92586774
181	0x3f215c68	0.63031626
182	0x3ef8e288	0.4861033
183	0x3f6d32e8	0.926558
184	0x3f58e498	0.84723806
185	0x3efa73bc	0.48916423
186	0x3f468087	0.7753987
187	0x3f120e1a	0.5705277
188	0x3ee06f21	0.43834785
189	0x3f52450e	0.8213662
190	0x3f3efcf1	0.7460471
191	0x3f04142d	0.51593286
192	0x3f1034b3	0.5633041
193	0x3fa26d6d	1.2689644
194	0x3ed28759	0.41118887
195	0x3f1c623d	0.610874
196	0x3e8df79d	0.27727976
197	0x3e6db2f9	0.23212804
198	0x3f2c8dca	0.6740385
199	0x3edf0e2a	0.43565494
200	0x3f0cb806	0.549683
201	0x3f245df6	0.64205873
202	0x3ee1260b	0.43974337
203	0x3eb3bcbd	0.35104933
204	0x3f073113	0.52809256
205	0x3f0460c8	0.51710176
206	0x3f074578	0.52840376
207	0x3ec3c299	0.38234404
208	0x3f57664d	0.84140474
209	0x3f8d2cdf	1.1029319
210	0x3f261c1c	0.6488664
211	0x3f05bfe2	0.52245915
212	0x3ec24383	0.37942132
213	0x3f652b5d	0.8951929
214	0x3ec40563	0.3828536
215	0x3ebeb284	0.37245572
216	0x3f23196f	0.63710684
217	0x3f5064f3	0.81404036
218	0x3f042587	0.5161976
219	0x3e67d078	0.22638118
220	0x3f16da08	0.5892644
221	0x3e9de654	0.3083979
222	0x3f007a6c	0.501868
223	0x3f5fb87d	0.8739088
224	0x3ee1229c	0.43971717
225	0x3f6a36f2	0.9149009
226	0x3f5b31bd	0.8562277
227	0x3ecfd267	0.40590212
228	0x3f5411d1	0.82839686
229	0x3f64a50f	0.8931436
230	0x3f28179b	0.6566102
231	0x3f0b1090	0.5432215
232	0x3f4f7401	0.8103638
233	0x3f4993f3	0.7874138
234	0x3f552413	0.8325817
235	0x3f04891d	0.5177172
236	0x3f33b2d6	0.70194757
237	0x3f477bae	0.77923095
238	0x3f03ce17	0.51486343
239	0x3ec62b7c	0.3870505
240	0x3f848e03	1.0355839
241	0x3f376c5f	0.71649736
242	0x3f035343	0.5129892
243	0x3e9505ea	0.29106075
244	0x3f2e2060	0.6801815
245	0x3f375e7a	0.71628535
246	0x3ec9f3ef	0.3944392
247	0x3f005485	0.50128967
248	0x3f040df8	0.51583815
249	0x3f431572	0.762046
250	0x3ee0b78e	0.4389004
251	0x3f79043d	0.9727209
252	0x3fac62db	1.3467668
253	0x3f0b6f2c	0.5446651
254	0x3eac74f7	0.33682987
255	0x3ef4a040	0.4777851
