src/examples/A2/stats.safetensors (safetensors, 131232 bytes, 2 tensors)

mean_pixels f4 [4, 64, 64]
2.2112556 1.7770591 1.6861651 2.1168282 1.7035753 1.807727 1.7678516 1.7268338
1.7502502 1.6562097 1.7458563 1.7521671 1.798308 1.720656 1.6892365 1.7262144
1.7490718 1.6294504 1.829787 1.7981596 1.7746263 1.8307941 1.7669016 1.8314478
1.8001252 1.7750709 1.8924364 1.7484707 1.7761724 1.864152 1.5703698 1.8537332
1.7419615 1.8640034 1.7663938 1.8147883 1.7694219 1.7607176 1.7203419 1.8383726
1.8202988 1.8009264 1.7849412 1.8009584 1.7910637 1.791876 1.7927103 1.7929606
1.7929902 1.7929184 1.792946 1.7929764 1.7929945 1.7929928 1.7930629 1.7926197
1.7912242 1.8149344 1.7263118 2.0512662 1.6629206 2.181811 1.6342282 1.8412638
2.156741 1.7371936 1.7948898 1.8979628 1.7701623 1.7815696 1.8261337 1.927835
1.8366232 1.7670728 1.7913756 1.7414414 1.8042252 1.7518717 1.8747526 1.6928713
1.8209672 1.8086478 1.8800937 1.8270878 1.8446736 1.8539168 1.8409115 1.8516515
1.8375725 1.8669664 1.8590536 1.8418506 1.8326751 1.892582 1.8633853 1.7482675
1.7684692 1.8576099 1.868783 1.858806 1.8707153 1.8263543 1.8315561 1.8478112
1.837357 1.8651748 1.8758742 1.8808892 1.8776509 1.8771902 1.8759425 1.8756948
1.8760154 1.8761921 1.8763524 1.8763385 1.8763583 1.8763628 1.8763878 1.8762941
1.8741056 1.8786584 1.862638 1.9364226 1.8470427 1.9610004 1.6752009 1.7912229
2.1128552 1.8657142 1.8668418 1.8766122 1.9533726 1.8236518 1.8239065 1.8898387
1.7919772 1.8945879 1.8976845 1.9254007 1.8917794 1.8960736 1.8621646 1.9094477
1.9105902 1.8484206 1.9372072 1.9160953 1.9230115 1.922484 1.9196326 1.9189732
1.9191427 1.9263732 1.9144481 1.8958355 1.8631176 1.924582 1.8251969 1.8280874
1.9384167 1.9040501 1.9140563 1.9362502 1.9197255 1.9169128 1.957161 2.0687408
1.982845 1.942537 1.9386456 1.9425637 1.9354658 1.9359508 1.9334879 1.9339349
1.9334475 1.9331248 1.9328957 1.9329025 1.9329859 1.933025 1.9330412 1.9329187
1.9325788 1.9329969 1.9307877 1.9410996 1.9265581 1.9710516 1.7731003 1.7761575
2.2154908 1.8601587 1.8777077 1.8571991 1.8724592 1.9370866 1.9288733 1.8800528
1.9316398 1.938049 1.8565468 1.8255198 1.8887221 1.8958158 1.8533205 1.8958337
1.8303045 1.9456517 1.8935789 1.934544 1.9471058 1.9441816 1.9414506 1.9373965
1.9433252 1.9458946 1.9583654 1.963072 1.9439374 1.9121287 1.9894571 1.9548831
1.865828 1.837092 1.947022 1.9622879 1.9249017 1.9002253 1.8182472 1.9180562
1.9031658 1.9111006 1.929714 1.9426808 1.9548333 1.9470707 1.945272 1.9429536
1.9432478 1.9439645 1.9436611 1.9438843 1.9437947 1.9438188 1.9438251 1.9438066
1.9437954 1.9437807 1.9431808 1.944404 1.9360433 1.9712166 1.8021321 1.818966
00000000: 3685 0d40 ac76 e33f 42d4 d73f 1d7a 0740
00000010: c10e da3f 9963 e73f f648 e23f e408 dd3f
00000020: 3308 e03f aefe d33f 3878 df3f 0347 e03f
00000030: f52e e63f 753e dc3f e738 d83f 98f4 dc3f
00000040: 96e1 df3f d591 d03f 7636 ea3f 182a e63f
00000050: f426 e33f 7657 ea3f d529 e23f e26c ea3f
00000060: 816a e63f 8635 e33f 5b3b f23f e3cd df3f
00000070: 9e59 e33f 889c ee3f e101 c93f 2147 ed3f
00000080: 98f8 de3f aa97 ee3f 3119 e23f fc4a e83f
00000090: 6b7c e23f 325f e13f 2a34 dc3f cb4f eb3f
000000a0: 8dff e83f c284 e63f f478 e43f ce85 e63f
000000b0: 9341 e53f 315c e53f 8877 e53f bc7f e53f
000000c0: b480 e53f 5a7e e53f 417f e53f 4080 e53f
000000d0: d880 e53f ca80 e53f 1683 e53f 9074 e53f
000000e0: d646 e53f c54f e83f c9f7 dc3f f247 0340
000000f0: 95da d43f cba2 0b40 642e d13f 88ae eb3f
00000100: 0b08 0a40 5c5c de3f f3be e53f 72f0 f23f
00000110: ae94 e23f 790a e43f c0be e93f 4cc3 f63f
00000120: 7816 eb3f 712f e23f cc4b e53f 8de7 de3f
00000130: daf0 e63f 553d e03f e5f7 ef3f 02b0 d83f
00000140: 7415 e93f c581 e73f e9a6 f03f 03de e93f
00000150: 441e ec3f 254d ed3f fda2 eb3f eb02 ed3f
00000160: 9335 eb3f c1f8 ee3f 78f5 ed3f c3c1 eb3f
00000170: 1995 ea3f 2140 f23f 6983 ee3f 3bc7 df3f
00000180: 335d e23f 29c6 ed3f 4834 ef3f 5bed ed3f
00000190: 9973 ef3f fac5 e93f 6e70 ea3f 1485 ec3f
000001a0: 842e eb3f 0cbe ee3f a51c f03f fac0 f03f
000001b0: dd56 f03f c547 f03f e21e f03f c416 f03f
000001c0: 4621 f03f 1027 f03f 512c f03f dc2b f03f
000001d0: 822c f03f a82c f03f 7a2d f03f 682a f03f
000001e0: b1e2 ef3f e177 f03f ec6a ee3f b2dc f73f
000001f0: e56b ec3f 1002 fb3f fc6c d63f cb46 e53f
00000200: 0539 0740 b9cf ee3f acf4 ee3f d434 f03f
00000210: 1d08 fa3f 6c6d e93f c575 e93f 3ce6 f13f
00000220: 825f e53f db81 f23f 53e7 f23f 8873 f63f
00000230: d425 f23f 8ab2 f23f 695b ee3f c868 f43f
00000240: 388e f43f 0c99 ec3f 68f6 f73f 9c42 f53f
00000250: 3e25 f63f f513 f63f 85b6 f53f eaa0 f53f
00000260: 78a6 f53f 6693 f63f a30c f53f bdaa f23f
00000270: a37a ee3f b458 f63f 0da0 e93f c5fe e93f
00000280: 0a1e f83f eab7 f33f ccff f43f 0cd7 f73f
00000290: 91b9 f53f 665d f53f 4084 fa3f 4066 0440
000002a0: ddcd fd3f 0da5 f83f 8a25 f83f eda5 f83f
000002b0: 58bd f73f 3ccd f73f 887c f73f 2e8b f73f
000002c0: 357b f73f a270 f73f 2069 f73f 5969 f73f
000002d0: 156c f73f 5d6d f73f e56d f73f e169 f73f
000002e0: be5e f73f 716c f73f 0d24 f73f f475 f83f
000002f0: 7599 f63f 6b4b fc3f f3f4 e23f 2159 e33f
00000300: 9aca 0d40 ae19 ee3f ba58 f03f b3b8 ed3f
00000310: beac ef3f 74f2 f73f 52e5 f63f 92a5 f03f
00000320: f93f f73f fd11 f83f 53a3 ed3f a2aa e93f
00000330: a5c1 f13f 18aa f23f 9b39 ed3f aeaa f23f
00000340: 6b47 ea3f 1d0b f93f cb60 f23f 239f f73f
00000350: c33a f93f f1da f83f 7481 f83f 9cfc f73f
00000360: e1be f83f 1313 f93f b8ab fa3f f145 fb3f
00000370: f1d2 f83f a2c0 f43f 88a6 fe3f 9c39 fa3f
00000380: 74d3 ee3f d525 eb3f 0438 f93f 402c fb3f
00000390: 2e63 f63f 953a f33f 53bc e83f de82 f53f
000003a0: f09a f33f f29e f43f de00 f73f c4a9 f83f
000003b0: fa37 fa3f 9d39 f93f acfe f83f b4b2 f83f
000003c0: 58bc f83f d4d3 f83f e3c9 f83f 33d1 f83f
000003d0: 44ce f83f 0ecf f83f 43cf f83f a8ce f83f
000003e0: 4ace f83f cecd f83f 26ba f83f 3be2 f83f
000003f0: 44d0 f73f d350 fc3f 44ac e63f e1d3 e83f

var_pixels f4 [4, 64, 64]
0.06352856 0.044949204 0.09174478 0.020154841 0.09705938 0.026629036 0.096511066 0.05128424
0.05407846 0.09732903 0.053235173 0.05437143 0.07961244 0.054260504 0.06798911 0.05324979
0.05381498 0.13235416 0.1138368 0.07957325 0.06305218 0.106381275 0.08000165 0.06375566
0.0707482 0.089038245 0.084101684 0.11753342 0.08663098 0.06634801 0.5561628 0.06346386
0.12300748 0.065534495 0.08462092 0.07977205 0.07654154 0.077273384 0.09386637 0.11242393
0.09340278 0.083056234 0.077843055 0.08300694 0.07939265 0.079638205 0.07990038 0.07997987
0.079988964 0.079965696 0.079974554 0.07998431 0.079989545 0.07999244 0.07993802 0.080219835
0.08136902 0.06660653 0.12722035 0.006025485 0.12200899 0.013007972 0.07533013 0.071538456
0.06913843 0.09479644 0.007882015 0.031337537 0.015385371 0.030236885 0.0043441444 0.0806591
0.0045726225 0.023723796 0.009309157 0.0478425 0.005038286 0.036904883 0.022778852 0.11874864
0.0029569967 0.004087713 0.027353683 0.0031062188 0.006773405 0.009494032 0.0058960114 0.006155319
0.006389063 0.008649188 0.0070484052 0.006304339 0.007438646 0.021531371 0.008595443 0.07354269
0.0490917 0.0072772964 0.00818392 0.006238762 0.018647872 0.019369276 0.02620594 0.012606044
0.01890122 0.0077960882 0.0063621514 0.0062505095 0.0062786113 0.0062922165 0.006350324 0.006363999
0.006344965 0.0063351956 0.0063268333 0.006327503 0.006326495 0.0063261297 0.006324029 0.0063380883
0.006351953 0.006385557 0.006080201 0.013412901 0.0072004762 0.012563549 0.005158431 0.010758866
0.06595677 0.006175805 0.012553729 0.022207014 0.009798255 0.053672973 0.05935869 0.0107968105
0.10488797 0.009456578 0.008847213 0.009448656 0.010109755 0.009139285 0.023786383 0.0077866907
0.0077897017 0.034085285 0.013163068 0.008017215 0.008965523 0.00873389 0.0082899565 0.008437622
0.008638614 0.010631722 0.008204097 0.0069975834 0.017797815 0.009215391 0.05050813 0.04714511
0.014977895 0.006962323 0.0064447424 0.004175956 0.012677482 0.010867763 0.004742392 0.10476956
0.012148765 0.0045316163 0.005000705 0.004522506 0.0055436916 0.0054537053 0.00596049 0.005866801
0.005975989 0.0060497313 0.00610242 0.0061009875 0.00608208 0.0060741343 0.0060767564 0.006054385
0.005978981 0.005993515 0.005640514 0.0069624144 0.0057340413 0.005348951 0.004853958 0.0013842409
0.013997757 0.01522581 0.030720906 0.038034488 0.04266799 0.012392327 0.010343592 0.025237203
0.010432526 0.011160106 0.044716243 0.08190008 0.020336112 0.016939202 0.048044275 0.0169663
0.07508113 0.012953441 0.017958421 0.010481357 0.011642281 0.011293923 0.0111695 0.010859267
0.010665809 0.010919412 0.010892115 0.012801036 0.009347418 0.015432046 0.019741906 0.011327525
0.03625641 0.074797966 0.013676643 0.0049312855 0.015680416 0.030295504 0.14251372 0.014527352
0.025077403 0.019731188 0.009432621 0.0050710025 0.0032462075 0.004179428 0.0045173517 0.00502829
0.0049671037 0.0048110583 0.00487925 0.004830046 0.0048499624 0.004845399 0.0048449524 0.0048412285
0.0048266593 0.0048022172 0.0047660857 0.0045777815 0.0044717356 0.004123588 0.004664224 0.0019292379
00000000: 431b 823d a81c 383d b0e4 bb3d c41b a53c
00000010: 11c7 c63d 2325 da3c 98a7 c53d 6c0f 523d
00000020: 6081 5d3d 7154 c73d 200d 5a3d 94b4 5e3d
00000030: d90b a33d 4340 5e3d e03d 8b3d 741c 5a3d
00000040: 196d 5c3d d987 073e 4523 e93d 4df7 a23d
00000050: 8021 813d 6dde d93d e8d7 a33d 5492 823d
00000060: 6fe4 903d af59 b63d 813d ac3d 5db5 f03d
00000070: 956b b13d 77e1 873d af60 0e3f 57f9 813d
00000080: 58eb fb3d f336 863d bc4d ad3d 875f a33d
00000090: d0c1 9c3d 8241 9e3d 033d c03d 843e e63d
000000a0: f549 bf3d 6319 aa3d 2e6c 9f3d 8bff a93d
000000b0: 9d98 a23d 5b19 a33d cfa2 a33d 7ccc a33d
000000c0: 41d1 a33d 0ec5 a33d b3c9 a33d d0ce a33d
000000d0: 8fd1 a33d 14d3 a33d 8bb6 a33d 4c4a a43d
000000e0: cda4 a63d 0169 883d 0d46 023e 6f71 c53b
000000f0: d9df f93d 641f 553c af46 9a3d c182 923d
00000100: 7398 8d3d a324 c23d 9123 013c ca5b 003d
00000110: ec12 7c3c 58b3 f73c 5359 8e3b 9930 a53d
00000120: f0d5 953b 6858 c23c 6f85 183c 7ff6 433d
00000130: 3518 a53b 9329 173d b79a ba3c 7d32 f33d
00000140: 2cca 413b 39f2 853b d514 e03c b491 4b3b
00000150: 70f3 dd3b db8c 1b3c 5433 c13b 8fb2 c93b
00000160: 585b d13b 53b5 0d3c 4ff6 e63b a194 ce3b
00000170: e3bf f33b 8f62 b03c e7d3 0c3c 8d9d 963d
00000180: 6114 493d 6376 ee3b d915 063c 876e cc3b
00000190: 6cc3 983c 51ac 9e3c d7ad d63c 9589 4e3c
000001a0: bbd6 9a3c 5476 ff3b 9879 d03b 13d1 cc3b
000001b0: cfbc cd3b f02e ce3b 6116 d03b 1889 d03b
000001c0: 6de9 cf3b 7997 cf3b 5351 cf3b f156 cf3b
000001d0: 7d4e cf3b 6c4b cf3b cd39 cf3b bdaf cf3b
000001e0: 0b24 d03b ef3d d13b 6c3c c73b c9c1 5b3c
000001f0: f9f1 eb3b 58d7 4d3c 0e08 a93b f445 303c
00000200: 5814 873d 685e ca3b 28ae 4d3c 7ceb b53c
00000210: dc88 203c 31d8 5b3d 1922 733d 1be5 303c
00000220: 81cf d63d c3ef 1a3c e7f3 103c 89ce 1a3c
00000230: 63a3 253c f1bc 153c a9db c23c 7f27 ff3b
00000240: c140 ff3b 039d 0b3d e9a9 573c a35a 033c
00000250: 21e4 123c 9718 0f3c 99d2 073c f43d 0a3c
00000260: f988 0d3c ad30 2e3c 7a6a 063c fc4b e53b
00000270: b9cc 913c 27fc 163c 9de1 4e3d 3b1b 413d
00000280: d865 753c 3324 e43b 6b2e d33b 75d6 883b
00000290: 37b5 4f3c b40e 323c 1166 9b3b 6c91 d63d
000002a0: 9d0b 473c f47d 943b f4dc a33b 8831 943b
000002b0: dba7 b53b ffb4 b23b 3750 c33b 4b3e c03b
000002c0: 3bd2 c33b d33c c63b cff6 c73b cbea c73b
000002d0: 2f4c c73b 8809 c73b 871f c73b dd63 c63b
000002e0: 54eb c33b 3f65 c43b 10d4 b83b f724 e43b
000002f0: a0e4 bb3b 4146 af3b f30d 9f3b 6b6f b53a
00000300: d956 653c ad75 793c 69aa fb3c 0dca 1b3d
00000310: a1c4 2e3d 3009 4b3c 2b78 293c 40be ce3c
00000320: 2fed 2a3c e1d8 363c 6128 373d 3bbb a73d
00000330: eb97 a63c 15c4 8a3c 13ca 443d e9fc 8a3c
00000340: 23c4 993d ab3a 543c 8a1d 933c ffb9 2b3c
00000350: 44bf 3e3c 250a 393c 4700 373c 11eb 313c
00000360: a5bf 2e3c 55e7 323c d774 323c 70bb 513c
00000370: ea25 193c b1d6 7c3c c7b9 a13c 1597 393c
00000380: 9a81 143d ad2f 993d 0014 603c 9f96 a13b
00000390: 3774 803c 472e f83c 1eef 113e 2104 6e3c
000003a0: 206f cd3c 4da3 a13c 488b 1a3c a72a a63b
000003b0: 53be 543b 95f3 883b 4b06 943b 5bc4 a43b
000003c0: 16c3 a23b 15a6 9d3b 1ee2 9f3b 5d45 9e3b
000003d0: 6fec 9e3b 27c6 9e3b 68c2 9e3b 2ba3 9e3b
000003e0: f428 9e3b eb5b 9d3b d32c 9c3b 3701 963b
000003f0: a387 923b 2a1f 873b 59d6 983b 7bde fc3a
